weights/le_net.ckpt (torch, 260833 bytes, 27 tensors)

model.C1.weight f4 [6, 1, 5, 5]
00000000: 51b6 913d a4de 2b3d fbb4 713e 7185 443e
00000010: b193 ec3d 5e7f e5bd 3095 6dbd 22fc c63d
00000020: 3382 e33d 4d2e dfbd b960 0dbe 4d35 b43d
00000030: d6ca 2e3e 0a19 943d 6a11 3ebd 3939 74bd
00000040: 62e7 d53d 23bf 613e 3096 183e 1ed8 36be
00000050: 2393 50bc a199 85bc 3fc5 b8bc 817f 8bbc
00000060: c8b9 a0bd c937 f5bd 903d 10be 7c14 f63d
00000070: d179 a83d 62cc 9d3e 7d2b 0f3d baa9 0cbe
00000080: a04d d53d 034c 893d ceca 8e3d d7de 023c
00000090: d7c3 053e 6a40 743d 21ba 0e3e b139 da3c
000000a0: 8002 7ebd 3222 1c3e 185b a63d 4fd5 973c
000000b0: 0eb4 dfbb f866 903e 8d73 cb3d 0cec 303c
000000c0: 4f47 25bc db6a d13c 731a 1cbc 131c 63bd
000000d0: cf55 debc 0c65 db3d 7855 9cbd 1d21 44be
000000e0: 3811 3dbe 892e ef3d b835 67bd 176c acbd
000000f0: 89bf bcbd 5996 b43d bde3 20be 9d61 99bd
00000100: f2bb 0f3d 8913 823d ecff a23d 7f17 733d
00000110: b3e4 73bd 33a3 5e3a 688b c63e 3e87 aa3d
00000120: bcfe ef3d 0d3c 2d3e 1be7 773e d405 00bd
00000130: 2dad 82be e8d8 11be 16cc 48be 11e2 3bbe
00000140: 5a0e 70bd a4f7 9abd faec 34be 9a64 a1be
00000150: 2140 ae3d bcbb b6bd 6865 07be 4a67 043e
00000160: e831 193e 9370 2abe a208 69b9 423c 373e
00000170: 4730 103e eaca 883d b1f5 b4bd 51d5 623d
00000180: 5af7 11bc e0c0 1abd c6e2 e23d 514b 34bd
00000190: d8a8 76bd 1fb5 43be d4c7 3cbe 525f cc3d
000001a0: 6127 0cbe 502c 00be 45b2 3abc 128a 993d
000001b0: 76a3 773d 80b8 44bd 37a9 6cbd 33e3 713e
000001c0: a229 b1bd b0f8 c83d e446 19be 2df1 cc3d
000001d0: fb26 253e 0959 5b3c 2e8d 2ebe d768 4c3c
000001e0: eaf7 6e3e e4ce 873d fa94 093e bd52 fdbd
000001f0: 4633 903d aaf2 493d dcc8 1e3e 31c0 9a3d
00000200: 91cd fa3d 3bc9 e7bd 5129 c23a 379f 07bd
00000210: 37e3 ee3c deb0 f23d 2333 903d beb8 083e
00000220: 52d3 413e 73cb 5ebd c4ba 093d 8f8b be3d
00000230: ea98 b23d fa48 51be 2db4 9bbd 15aa f1bd
00000240: 88b3 613d 59a7 8f3d 8116 8abe 3731 6bbe
00000250: 1bba 0abe 6e2c 52be
0.07114852 0.041960374 0.23604195 0.19191529 0.115516074 -0.11205934 -0.058003604 0.09716059
0.11108818 -0.10897503 -0.13806428 0.08799229 0.17069563 0.07231338 -0.046403326 -0.059624884
0.104445234 0.22045569 0.14901042 -0.1785588 -0.012730393 -0.016308608 -0.022554992 -0.017028572
-0.07847935 -0.11973531 -0.14085984 0.12015626 0.0822636 0.30819994 0.034953583 -0.1373662
0.104151964 0.06703951 0.06972276 0.0079876995 0.13062988 0.059631743 0.1393819 0.026638838
-0.062014103 0.1524742 0.081228435 0.01853433 -0.006826884 0.2820356 0.09934149 0.010798465
-0.010087802 0.025563648 -0.00952779 -0.055446696 -0.027140526 0.107126325 -0.07633489 -0.19153257
-0.184636 0.11678798 -0.056447715 -0.08419054 -0.0921622 0.08817739 -0.15711875 -0.074893214
0.035091348 0.06351382 0.079589695 0.05934858 -0.059544276 0.00084929465 0.38778234 0.08326577
0.117185086 0.16917439 0.24209253 -0.031255558 -0.25522748 -0.142429 -0.19609103 -0.18347956
-0.058607437 -0.07566765 -0.17668524 -0.31522065 0.08508325 -0.08922526 -0.13222277 0.12930027
0.14960444 -0.16644506 -0.00022223828 0.1789408 0.14080916 0.06679328 -0.088359244 0.055379216
-0.008909071 -0.037781596 0.1107841 -0.04401714 -0.060219616 -0.19112061 -0.18435603 0.099791184
-0.13686897 -0.12516904 -0.011395042 0.07497038 0.060458623 -0.048027515 -0.057778563 0.23621826
-0.08650519 0.098130584 -0.14968449 0.10006938 0.16128151 0.013387927 -0.17046043 0.012476168
0.23336759 0.06631258 0.13435736 -0.12369297 0.0704103 0.049303688 0.1550631 0.07556189
0.1224624 -0.113176785 0.0014813339 -0.033110823 0.029161079 0.11850141 0.070410036 0.13351724
0.18928269 -0.054393243 0.03362538 0.093039624 0.08720572 -0.20437995 -0.07602725 -0.11800019
0.055102855 0.07014341 -0.26970294 -0.22967993 -0.13547556 -0.20524761

model.C1.bias f4 [6]
00000000: 8b12 8abd 329e 07be 877c c3bd 7d48 043d
00000010: f4b8 5e3e d2a0 613d
-0.06741818 -0.1324394 -0.09545236 0.032295693 0.21750242 0.05508501

model.S2.bias f4 [1, 6, 1, 1]
00000000: 9e35 f53d dde0 193e 7708 fc3e a5fe 493f
00000010: 9c91 2b3f a787 0f3e
0.11973117 0.15027185 0.49225208 0.7890418 0.6701906 0.14016591

model.S2.weight f4 [1, 6, 1, 1]
00000000: 5911 a83e f079 b03e f0f3 8d3e dc06 b03e
00000010: 1d87 883e a87a 9b3e
0.32825735 0.3446803 0.27725172 0.34380233 0.26665583 0.30367017

model.C3.convs.0.weight f4 [1, 3, 5, 5]
00000000: 4ecb 0c3e e6ce 173e 8ec4 853c 89d5 79bc
00000010: 5fa8 01be ab3a 5abd c844 f23d 1a47 a23d
00000020: 191a 6abd 2b5a 19be 967f 8e3d 5998 95bd
00000030: 41ce 39bc 1d74 f9bd 4760 c8bd d491 453e
00000040: 6c74 5b3e 4633 153e c348 243e d6a6 8a3d
00000050: a07e 013d ffa2 473e b821 2a3e 20f6 2f3e
00000060: e755 adbd 7fdb 83bd 74b5 ecbb 7853 1ebe
00000070: 8f5e 05be 0ca6 b43c 415b 3abe f34c f6bd
00000080: 2a4c 81bc acc7 18be ebde b2bd 5ba2 593d
00000090: 50ac 853c dde7 8c3d 2505 153e 11f8 723d
000000a0: c0fd 4f3d f8a1 1e3e bbba 193c 4de9 973c
000000b0: b113 c03d d9c7 0abc 260e e53d 0110 763c
000000c0: 6cbc f4bc cdd0 4cbd f251 46bd bee1 77bd
000000d0: 5551 b1bd 9b0e 573d 319c dd3c cda7 003e
000000e0: 44ad a438 c1c0 703d b067 21bd d5ce 3fbd
000000f0: 20d4 d7bc f3dd 1cbe 6cc4 93bd 4aa7 04be
00000100: 9776 f33c 690a 41be 6849 0bbe eee4 ccbd
00000110: 53d9 c9bd 09b8 cfbd eb99 7cbd b3b3 ccbd
00000120: 41ba ab3d dbac 5cbd bbe6 733d
0.1374943 0.14825019 0.016329076 -0.015248665 -0.12661885 -0.053278606 0.11829525 0.07923718
-0.057153795 -0.14975803 0.06957929 -0.07304449 -0.011340679 -0.1218035 -0.097839884 0.1929391
0.2143113 0.1457034 0.16043381 0.06770103 0.0316149 0.19495772 0.16614425 0.17183733
-0.0846365 -0.0643835 -0.0072237793 -0.15461528 -0.13024352 0.022051834 -0.18198873 -0.12026396
-0.015783388 -0.14919919 -0.087339245 0.05313335 0.016317517 0.06880162 0.14552744 0.059318606
0.050779104 0.15491474 0.009382899 0.018543864 0.09378756 -0.008470499 0.11184339 0.015018464
-0.029875003 -0.050003815 -0.048417993 -0.06051802 -0.08658091 0.052504163 0.027052017 0.12564011
7.8524026e-05 0.058777574 -0.039405525 -0.04682811 -0.026346266 -0.15319042 -0.07215199 -0.1295444
0.029719634 -0.18851627 -0.13602221 -0.100046024 -0.098559044 -0.10142524 -0.061670225 -0.099952124
0.083851345 -0.053875785 0.059546214

model.C3.convs.1.weight f4 [1, 3, 5, 5]
00000000: 3b50 4a3d 3742 f83d beda f43c 44ed fb3d
00000010: 60f3 433d 9c46 423d 2bf7 4bbd 4c64 9abd
00000020: 7322 213e 462b a6bc ec12 933d f07f 763d
00000030: 60ec d23d 926b 1e3d cdaf 23bd 821c 873d
00000040: 4c57 043e abc4 dd3d 7e4b 073e 968d 123e
00000050: 72bd 07bd 847b 143e 5a7e 453d b84e b23c
00000060: cde2 a13d b7a6 e9bd 18e2 d3bd 9aab 093d
00000070: 22fd eabd 96df 12be 2433 05be b13a e33d
00000080: 8a30 803d f25a 9d3d f060 31be 2b33 40bd
00000090: b95b 10bd 9d05 11be 5769 dcbd ea25 0dbe
000000a0: 12b5 cdbd 104b 68bd 492d 51bd 895e 97bd
000000b0: c394 48bd 0fd9 72bd e7b5 45be 94bf 99bd
000000c0: 6ddb 8f3d f660 27bd a37b e83d 7ce9 453d
000000d0: b666 673b 5f79 1bbc d099 613d 3ce2 88bd
000000e0: 8b90 00bc fb9a 323d c6ef 61bd c2ef ca3c
000000f0: fe7a 47bd 2bca b4bd f68e b03b 1b46 e3bc
00000100: 21bb fd3d 36f9 eb3d 2065 6c3d 4cb6 0fbd
00000110: 7fd3 513d 136d 9e3d 9b08 413d 8014 1bbd
00000120: 4eb3 44bd a8b8 29bd 29da 0b3e
0.04939292 0.121220045 0.02988946 0.12301114 0.047839522 0.04743062 -0.049796265 -0.07538661
0.15735798 -0.020284306 0.071813434 0.060180604 0.10298991 0.038676806 -0.03996258 0.06597234
0.12923926 0.10828527 0.13212392 0.14311823 -0.033139654 0.14500242 0.0482162 0.021766052
0.07904587 -0.114087515 -0.10345858 0.033610918 -0.114740625 -0.14343104 -0.1300779 0.11095179
0.06259258 0.07683362 -0.17322135 -0.046923798 -0.035243724 -0.14162298 -0.107622795 -0.13783994
-0.10044302 -0.05671221 -0.051068578 -0.07391078 -0.048969995 -0.059289034 -0.19307671 -0.07507244
0.07024274 -0.040863954 0.11351707 0.04831837 0.0035309023 -0.009489386 0.055078328 -0.06683776
-0.007846962 0.043604832 -0.055160306 0.024772529 -0.04870128 -0.08827623 0.005388136 -0.02774339
0.12389208 0.115221426 0.057713628 -0.03508596 0.05122709 0.07735648 0.047127347 -0.037861347
-0.04802256 -0.041435868 0.1365744

model.C3.convs.2.weight f4 [1, 3, 5, 5]
00000000: b76f 1a3e 169a 013e 676b 403d 4085 5b3c
00000010: 33c7 03be 2990 c93d 7caf f53c 23d6 083c
00000020: 3d11 1ebc 1912 e73d 7021 f8bd 7ca1 a7bd
00000030: 516f 333d f514 623d 66f0 c73d 245c 3ebd
00000040: 2ecf 003d a622 263d 6ba3 f03c 9edd 823d
00000050: 5479 39bd d3d6 b33d c829 f83d 3143 d6bc
00000060: c9a9 adbd fa61 773c d8e4 9ebc 8312 143e
00000070: 0fd5 62bd 72d2 db3d 0175 933d b2ea 9c3d
00000080: c5db 2f3e 7c3e 693b de3d c1bd d77f f3bd
00000090: 19d5 bdbd da2c 113d ee1f ccbc 1db7 553d
000000a0: fd4c 80bc fb9e e1bd a128 07bd 53b9 1abe
000000b0: ada8 15be 1c69 383d 1a6e 2ebd 4ea5 103d
000000c0: fc2f 16bd 178d 33bd 6b37 943d f4c5 b93d
000000d0: df70 853d 08e7 babd f395 a8bd 2e92 b5bc
000000e0: 3bb6 9cbd aff6 8f3d 7de8 263e c6c5 4f3d
000000f0: 9983 c8bd dd42 0f3c 4939 7e3d 903e b2bd
00000100: d30e 07bc 8455 d7bd 3798 eebd bddc 3ebd
00000110: a2c9 0fbe 6107 e8bd 240c 45bd 4632 b23c
00000120: 09f4 9dbc 6bdc 2abd cc44 4ebd
0.15081678 0.12656435 0.046977427 0.0133984685 -0.12868957 0.098419495 0.029990904 0.008351835
-0.009647665 0.11282749 -0.12115753 -0.081850976 0.04380733 0.055195767 0.09762649 -0.04647459
0.031447582 0.040560387 0.029374799 0.063899264 -0.045281723 0.08781209 0.12117344 -0.026155086
-0.084796496 0.015099043 -0.01939623 0.14460187 -0.05537897 0.10733499 0.07200051 0.07661952
0.17173679 0.0035590222 -0.09435628 -0.11889618 -0.09269161 0.035443164 -0.024917569 0.052176584
-0.01566171 -0.11016651 -0.03299773 -0.15109758 -0.14615126 0.045022115 -0.04258547 0.035313897
-0.036666855 -0.043835726 0.07237133 0.0907096 0.06515669 -0.09126097 -0.082317255 -0.02216443
-0.07651945 0.07029473 0.16299625 0.05072572 -0.09790725 0.008743969 0.06206635 -0.08703339
-0.00824328 -0.10514358 -0.116501264 -0.04659723 -0.1404176 -0.113295324 -0.04810728 0.021752488
-0.019281404 -0.041714113 -0.05035858

model.C3.convs.3.weight f4 [1, 3, 5, 5]
00000000: e3b6 3fbd 651c 8ebd 4cb0 90bb a381 1fbb
00000010: 14c5 aabb 2153 16be 3498 e7bc 3745 ecbc
00000020: 63ce 653d 54ee ccbd 6d0a f2bd ebc2 17be
00000030: bb79 edbd 60e3 fdbc 8dfd cebc c4b0 55be
00000040: 2fa9 84bd 8f7d 10bd 4ce5 babd 1aff 0ebe
00000050: 47ce 0d3d 266a b13d 9ddc efbc 6151 c8bb
00000060: 7499 313d b48f cd3d 643b 803d 20cd a13d
00000070: 7f96 ed3b 88f4 2fbb 159f 303d ec32 463b
00000080: 6b91 383e 8683 c83d 6b18 f13d a6c1 ac3d
00000090: 1cb4 833d 8e48 893b 79b7 5c3d 98fd 463c
000000a0: a037 45bd b1bd 8c3d 8517 3bbd f253 c8bd
000000b0: 10e3 f8bb c652 9b3d 6f69 24bd 69fa 5c3d
000000c0: 656d 0a3c 34d6 95bc be84 88bc 540c bf3c
000000d0: f950 353d 6dce 943c 7f03 79bd 7d69 3ebe
000000e0: 5393 25be d6d1 debd d344 09be 528b 26be
000000f0: 5375 a7bd d424 3b3d d66e 1b3b e9ee 61bd
00000100: 15d2 e1bd 686d 2a3d f7b0 a93d 455f 323d
00000110: 0557 513e b3f8 643e 6f4e a93d 6a33 0c3e
00000120: d7b6 2f3d 65d0 f13d 39e7 c6bd
-0.046805274 -0.069390096 -0.0044155475 -0.0024338744 -0.005211482 -0.14680149 -0.028270818 -0.028841598
0.05610503 -0.10006395 -0.11818395 -0.14820449 -0.11595484 -0.03099221 -0.025267387 -0.20868212
-0.06477582 -0.035275992 -0.09125766 -0.13964501 0.03462055 0.08662824 -0.029280001 -0.0061132167
0.043359235 0.10037175 0.06261328 0.079004526 0.0072506065 -0.0026848633 0.043120462 0.0030242754
0.18024223 0.09790711 0.117722355 0.08435373 0.064308375 0.0041895574 0.05388591 0.012145422
-0.04814875 0.06872118 -0.045676727 -0.09781636 -0.0075954273 0.07584147 -0.04013961 0.053949747
0.008448933 -0.018290617 -0.016664859 0.023321308 0.044266675 0.018164838 -0.06079435 -0.18594928
-0.16169481 -0.10879867 -0.1340516 -0.16264084 -0.08176675 0.04568942 0.0023717186 -0.055159483
-0.11026398 0.041608244 0.082857065 0.043547887 0.20443352 0.22360496 0.08266913 0.13691488
0.04289898 0.11807326 -0.09712071

model.C3.convs.4.weight f4 [1, 3, 5, 5]
00000000: dca3 0fbe 7030 10be b7d4 cebd 776e 36be
00000010: fdfe 39be c599 c8bd 8bb3 223d ea14 073c
00000020: 561c d7bd bb9f b0bd 8090 16bc bbad d4bc
00000030: 9ce6 123e b96f d83d 67e6 b8bd 213a 4bbd
00000040: b372 da3d d55d cc3b 4469 f33c f7e6 3b3e
00000050: 7ea2 5b3c b223 a8bd 7558 d23d 026c d83d
00000060: e123 093e 2db2 f3bd df64 0dbc b60f 8e3b
00000070: 6d28 71bd 40e7 59bd 36c4 ad3d 188d ad3d
00000080: fab6 32bc 138f 683c 28f5 48bd b8ce 003e
00000090: 938c b73d dd0f ee3d 8075 b73d 5528 18bd
000000a0: 9ba5 ec3b adee dfbd 139b 03be 03e1 a93c
000000b0: 6e89 41bd ab58 33bd d878 e1bd 8dd4 ecbd
000000c0: c5b6 09be 9d28 01be 87b3 c1bd 592e 55bc
000000d0: f5b2 d1bc b32d d23d 2829 ddbc 6b89 b4bd
000000e0: df5f 32bd a026 d53c a5c7 903d 186b ebbd
000000f0: 6f9a 933c 4eab a5bd 4bf0 df3c 8db3 83bd
00000100: 6964 f0bd 6470 473e 1bb7 0c3e b727 f9bb
00000110: b35a ab3d 18c7 a0bd e006 0d3e 84d4 573c
00000120: cdb8 b3bc 7749 8cbd 1a24 92bd
-0.14027351 -0.14080977 -0.10099166 -0.17815576 -0.18163677 -0.09794954 0.039722007 0.008244732
-0.105034515 -0.08624216 -0.009189725 -0.025961747 0.14345783 0.105681844 -0.09028321 -0.049615983
0.106664084 0.0062367716 0.02971328 0.18349825 0.01340544 -0.08209933 0.10270778 0.10567476
0.13392593 -0.11899219 -0.008630007 0.004335369 -0.058876444 -0.053199053 0.0848469 0.08474177
-0.010907883 0.014194268 -0.049061924 0.12578857 0.08962359 0.116241194 0.08957958 -0.03714784
0.00722189 -0.10934196 -0.12852125 0.020737177 -0.047250204 -0.043785732 -0.11009377 -0.11563978
-0.13448627 -0.12613149 -0.0945807 -0.013011538 -0.025598029 0.10262623 -0.026997164 -0.08815273
-0.04354846 0.026019394 0.07069329 -0.11495036 0.018017976 -0.080893144 0.02733626 -0.06430731
-0.11737902 0.19476467 0.13741724 -0.0076036113 0.08366909 -0.07850474 0.13772154 0.013173226
-0.021938706 -0.0684995 -0.07135792

model.C3.convs.5.weight f4 [1, 3, 5, 5]
00000000: 11f4 e2bd c24d 3c3b e16a eabd 594a c9bc
00000010: 02c1 5e3d 25f8 a3bc a6c6 0f3d 3de2 cdbd
00000020: 696c 28be b899 14be 98fe 603d 6b86 25be
00000030: 2ac3 04be e043 a9bd beff 30be f6ff 313d
00000040: 6c3a debd 5ebd 53bd 61d6 24be 6e99 abbd
00000050: d328 34be dc7c 083d 6ef2 0dbe 40d4 913d
00000060: 0aab 85bc e8fd fbbc 63db c3bd ef09 333d
00000070: bbaf 483d 748e 0dbd ecea 733d 9f5e 003e
00000080: 1a51 a13d 3510 6b3d d12a 5dbc fd5b 3a3d
00000090: 9edb cc3d 51ce 3d3e dca6 843d e967 dcbd
000000a0: 1a53 dabd 4fb5 a1bd 5872 63bd 8026 3d3a
000000b0: 9a2f e8ba d48b 14be 3550 8e3d f24f c0bc
000000c0: 1e58 dcbb ccab debc 7b44 e93d d3a8 1c3e
000000d0: 631e 343e 74b9 863e b3b2 8d3e 0b60 5ebb
000000e0: e392 f9ba a295 923d 3cc5 4d3b fb06 323d
000000f0: 3b4b 073e b349 8e3c 2562 103e 02ea fa3d
00000100: be17 f63a 2b25 f53d 8162 ff3c 4f09 163e
00000110: c103 a03d 8196 8cbd a6db e6bd 6d1f 5bbd
00000120: 8ed0 49bd 23f4 32be 8eb5 1fbe
-0.11081708 0.002873287 -0.11446167 -0.024571585 0.054383285 -0.020015785 0.035101555 -0.10052917
-0.16447605 -0.14511764 0.0549303 -0.16164558 -0.12965074 -0.08264899 -0.17285058 0.043456994
-0.10850987 -0.051694266 -0.16097404 -0.08378874 -0.17593698 0.0333222 -0.13862011 0.071205616
-0.01631691 -0.03076072 -0.09563329 0.043710645 0.048995715 -0.034559682 0.05955021 0.12536095
0.07876797 0.057388503 -0.013498978 0.045497883 0.10002826 0.18535735 0.064771384 -0.10762007
-0.106603816 -0.0789591 -0.05552897 0.0007215515 -0.0017714382 -0.14506465 0.06948892 -0.02347562
-0.0067243716 -0.027181529 0.11390015 0.15298776 0.17589717 0.26313365 0.276754 -0.0033931758
-0.0019040968 0.071574464 0.0031398078 0.04346369 0.13212292 0.017369127 0.14099939 0.12251665
0.0018775386 0.1196998 0.0311749 0.14651988 0.07813216 -0.06864644 -0.11272363 -0.053496767
-0.04927116 -0.17475943 -0.15596601

model.C3.convs.6.weight f4 [1, 4, 5, 5]
00000000: c6eb 3f3e a708 f13d b69f a83d 2583 67bd
00000010: e34b 93bd ccdb 9abc 0625 efbc 6702 2dbe
00000020: 5fae 20bd ac6e a9bd cf90 5fbd 2872 cabd
00000030: 03fb e2bd 47da 1f3c b5e9 cf3c 9576 14be
00000040: c217 fbbd b8e7 1abe dba0 d3bd ed42 7b3d
00000050: d7dd 663d 5d18 b93d 111c cf3d 00d9 dc3d
00000060: 8450 193d 8d5a 4ebd ac82 4dbd 9adc 9b3d
00000070: a7d2 ad3c 286e 253d f7f1 20bd 06a3 543b
00000080: 9c4d 0e3e 1653 063e ae72 db3c 1a25 f83d
00000090: 5d44 9b3b d66e 69bd 015b 623d ea78 6d3d
000000a0: 7c09 95bd a436 343b e726 f4bc f660 593d
000000b0: ae58 bcbd 62ee d8bb e23d 87bd 1d9f c7bd
000000c0: 82e2 19be 56ea 033d 2f3b 203d ac63 17be
000000d0: c096 b5bd c9aa 8fbd 8674 cd3d 3925 613d
000000e0: 31be fcb9 f3de 9fbd 0338 223d f4f6 593d
000000f0: ee60 9a3d bc85 813d 7a8a e73d a1ba 1b3e
00000100: 01bb 4abc 56cf ba3d f247 953c 6839 8fbc
00000110: ca61 3b3c 70e6 233d 6431 e1bc a87c 903d
00000120: cf25 f2bc 0eca 09bd 4bf2 633c 2123 8cbc
00000130: e57e 6c3d dbaa ab3d 1444 f73d d8eb eebc
00000140: d0b6 b5bb f652 a63d 59ca 0e3c 6c2e 1e3e
00000150: ffc6 c03c b247 6ebd 63d0 3b3c 05ce ff3d
00000160: fb3b 063e 211d 00be c61d 553d a4aa 243d
00000170: 2473 6a3d ed0f 2cbe 2684 15be e0a6 703d
00000180: 93f3 2ebd a591 c9bd c974 02be ecf7 1dbc
0.18742284 0.117692284 0.082335874 -0.056521554 -0.071922086 -0.018903635 -0.029192459 -0.16895448
-0.039228793 -0.08273062 -0.05458146 -0.09885055 -0.11083033 0.009756631 0.025379995 -0.1449836
-0.12260391 -0.15127456 -0.10333415 0.061343122 0.056363907 0.0903785 0.10112775 0.10783577
0.0374303 -0.050379325 -0.050173447 0.07610436 0.02121861 0.040388256 -0.039293256 0.0032445802
0.13896793 0.13117632 0.026788082 0.121164516 0.004738374 -0.056990467 0.05526257 0.05797664
-0.072771996 0.0027498389 -0.029803706 0.053070985 -0.09196602 -0.0066202143 -0.066036 -0.09747145
-0.15027812 0.032205902 0.039118942 -0.14784116 -0.08866644 -0.070149966 0.10031991 0.05496714
-0.0004820689 -0.07806196 0.0396042 0.05321403 0.07538019 0.06324336 0.11305709 0.15207912
-0.012373687 0.091215774 0.018222783 -0.017483428 0.011436889 0.040014684 -0.027489372 0.07055026
-0.029559044 -0.03363996 0.013912748 -0.017106595 0.057738204 0.083821975 0.12073532 -0.029165193
-0.0055454746 0.08121292 0.008715236 0.15447396 0.023532389 -0.058173843 0.0114632575 0.12490467
0.13108818 -0.12511112 0.052030347 0.040201798 0.057238713 -0.1680295 -0.14601192 0.058752894
-0.04271276 -0.098422326 -0.12739863 -0.009641629

model.C3.convs.7.weight f4 [1, 4, 5, 5]
00000000: a7e7 cc3d 7f5a a43d 9147 4d3d b1b6 8d3c
00000010: 864d 78bc feba 713c cf94 80bc 41a7 aabc
00000020: e5ad e7bb 32ec 04bc b254 ae3c 5e9d 3cbc
00000030: d86c 2fbc aeda babd 3f76 b2bd e1d7 073d
00000040: 64c6 193e 6784 ef3c faad 11bd ac77 fcbc
00000050: 2755 513e 5554 733e ba6d c03d 3ad3 bf3d
00000060: 9ae9 043d 3b50 383d 9722 a73b 6d43 52be
00000070: 73c0 24be dc7d 9abd 5bfd 5bbd 10ac 8d3c
00000080: 8a20 be3c d562 803d abf2 7cbd ef90 b73d
00000090: 91fd a33d c90e dbbc 3f02 363e 88e8 2d3e
000000a0: ea47 b0bd 0f43 c63a 65e9 2cbd 2dbc f13c
000000b0: e1ea 673d 95d8 c9bd ddbf b3bc 2f6d 253c
000000c0: 9c7b 73bd d80e b8bd 5936 39bd 7410 febc
000000d0: 64c8 95bd f100 1d3d 97ab 83bd 2ded 8a3d
000000e0: 1e48 8c3d 4ccc 233e d4bb cc3d 0033 78bc
000000f0: a568 e33d 5302 ea3d 1e8a 103e cc0b dbbc
00000100: f9ad 90bb a1ac 473c d320 e73c 11fd d2bd
00000110: 6164 5fbd d514 dc39 3391 5dbd 16a6 dbbb
00000120: 6e12 9fbc 0dcd 23bd e1c1 8bbc 0de1 d83c
00000130: 0e32 29bd eb36 d6bd 4d1f 83bd 6519 1abe
00000140: 3901 823d abf6 443d f143 eebb 9fc8 ddbd
00000150: 2288 1bbe 438f 333d 89a7 c63d 23bc b3bd
00000160: add3 97bd 89d5 cebd 2b83 023e ae27 f5bd
00000170: 579a 0cbd 9cb0 693c 39f6 673d 54c9 d4bb
00000180: 2a30 7cbd 977d 6b3d 27eb 9e3d 01a4 81bd
0.10005122 0.08025073 0.05011708 0.017299028 -0.015155202 0.014754055 -0.015695957 -0.020831706
-0.0070702904 -0.008112954 0.02128062 -0.011512129 -0.010707103 -0.09123741 -0.0871396 0.033164863
0.15017086 0.029237939 -0.035566308 -0.030818783 0.2044264 0.23762639 0.09395929 0.0936646
0.032449342 0.04499839 0.005100559 -0.20533533 -0.16089039 -0.07543537 -0.053708415 0.01729396
0.023208875 0.06268851 -0.061754864 0.08963191 0.08007348 -0.026740449 0.17774294 0.16983235
-0.086074665 0.0015126186 -0.04221477 0.029508675 0.056620482 -0.09855763 -0.021942073 0.010096832
-0.059444055 -0.08987206 -0.045217846 -0.031013705 -0.07313612 0.038330976 -0.064292125 0.06783519
0.06849693 0.15995902 0.09996763 -0.015148878 0.11103944 0.114262246 0.14115188 -0.026739024
-0.0044152704 0.012187154 0.028213894 -0.10302175 -0.05453909 0.0004197719 -0.05409355 -0.0067031486
-0.019417968 -0.039990474 -0.017060222 0.0264745 -0.0413075 -0.104596935 -0.064024545 -0.1504875
0.063478895 0.048086803 -0.007271283 -0.10829281 -0.1518865 0.043837797 0.096999235 -0.087761186
-0.07413421 -0.10099322 0.12745349 -0.11970459 -0.034326877 0.014263298 0.0566313 -0.0064937267
-0.06156937 0.05749282 0.077596955 -0.063301094

model.C3.convs.8.weight f4 [1, 4, 5, 5]
00000000: 6463 1f3d 11f8 2fbe 1a11 1fbe 8d9b 973d
00000010: c849 623c a5ef 86be 1446 11be 5c8e 46be
00000020: 32eb 14bd 2a87 e63d 0b40 1cbe 72e4 c6bd
00000030: c569 22be ef83 b63d b708 d7bc 97db 1e3d
00000040: 128b 693d 5639 ea3c c8b3 37bd 6a57 c43c
00000050: 63bd 913d 6029 6f3c d560 be3c 035f 86bd
00000060: e948 383d fef6 7c3e e22a 943e 33ff 083e
00000070: 4cc3 303e 8e38 9d3d 383a d83d 2378 293e
00000080: fb02 033d d659 aebc 5d9c dc3c 931b 883c
00000090: 480a c5bd b165 b33d 616f e5bd 4b4e e2bd
000000a0: cf59 fabd 8e54 fa3c 645d aebd 5857 cc3c
000000b0: cad9 ebbd d7ad 8b3d 1fc5 0a3c 92a0 a1bc
000000c0: a41c 08be 4ceb 40bd 4b07 2c3c d61b cf3d
000000d0: 4974 493d a4d6 b33c 2a26 183d 5315 90bc
000000e0: 7a62 a8ba 5ffd 123d 5d83 503b 5125 0b3e
000000f0: e1b3 fabd a9e0 e9bd d895 19be 48dc 08bd
00000100: d215 1f3c 5c10 d53d fa5d 283e 3f4a d33d
00000110: 714e 1dbe c52d 4ebe 476d 223e 53d5 243e
00000120: c51b f73c da44 0ebe ebd6 66be b81d 5fbd
00000130: 9069 eabc 3da6 8f3d 97be 21be 7944 bebe
00000140: 2e26 0cbd d2f7 29bb 17f6 dabd 0d20 08be
00000150: 239a 07be ba86 14bd f152 12be 2df1 6a39
00000160: 753e d33b a071 b8bc d8f6 2abe e767 4cbd
00000170: e8fe c43d 953f 8bbb fdf0 263d 3c03 37bd
00000180: f66a f8bc 2872 053c caca 193d 8a5d a83d
0.038913146 -0.17184474 -0.15533867 0.07402716 0.013811536 -0.2635471 -0.14186889 -0.19390243
-0.036357112 0.11256249 -0.15258805 -0.09711541 -0.1586066 0.08911883 -0.026249273 0.038783636
0.057017393 0.028591793 -0.044849187 0.023967464 0.07116201 0.014597267 0.023239532 -0.06561091
0.044991408 0.24703595 0.28938967 0.13378601 0.17262 0.076768026 0.10557979 0.16549735
0.031985264 -0.021283071 0.026930029 0.01661471 -0.096211016 0.087596305 -0.112028845 -0.110500894
-0.12224161 0.030557897 -0.085139066 0.024943992 -0.11516149 0.06820267 0.008469849 -0.019729886
-0.13292176 -0.047099397 0.010499786 0.10112731 0.049183164 0.021952935 0.03714577 -0.017588293
-0.0012846731 0.035886165 0.003181658 0.13588454 -0.122413404 -0.11419804 -0.14998567 -0.0334132
0.009709792 0.10403511 0.16442099 0.10316896 -0.15361954 -0.20134647 0.15861998 0.16097002
0.030164609 -0.13893452 -0.22542922 -0.0544717 -0.02861479 0.07014129 -0.1579536 -0.37161615
-0.0342161 -0.0025935066 -0.10691469 -0.13293476 -0.13242392 -0.036261298 -0.14289452 0.00022405824
0.0064466544 -0.022515118 -0.16695726 -0.049903776 0.09618932 -0.004249523 0.040757168 -0.04468082
-0.03032444 0.008144893 0.03754691 0.08220966

model.C3.convs.9.weight f4 [1, 4, 5, 5]
00000000: bb6e 83bd 7e6c d1bd cb95 1dbe e746 c0bc
00000010: f31d 773d eacb 1fbe 1ed0 f7bd 2f55 5cbd
00000020: 33b3 a6bd 95ea 0f3c 0d70 7d3d a2e9 11be
00000030: 8f13 cfbd a0a6 7fbc e4d6 3c3c f218 f63c
00000040: 8bbe b6bd 3bd5 e43d 0bd8 ef3c adc2 12be
00000050: 79b0 f23d a510 b13d 53c8 4c3e 9ba8 523e
00000060: 694d f93c 9883 3cbe cced 2cbe e3e9 abbd
00000070: 2518 d23d 83cb 0139 9cd3 22be 56a8 d2bd
00000080: a16d 00be 9d3d 9d3d 2903 3f3d 616f 13bd
00000090: c822 f5bd 9606 09be 6e8a 62bd 573d e2bd
000000a0: d63a 8d3d 9465 d43d 37bb de3d fdb1 a63c
000000b0: 744a 2bbe 6d28 073e ec56 1b3e 00f2 ec3d
000000c0: 2500 dc3d 5abf 2fbd 50b0 31bd b59a 6c3d
000000d0: 9dea e73d 559c be3d fb00 e83c 5c37 c6bd
000000e0: 817b 533d 8187 b8bd 0927 28bd 4ad8 da3c
000000f0: f9ad 4bbc 248d 12bd 343c 74bd 5c9c 9d3c
00000100: f747 98bd 91dd b93d 88d9 113d 63ef 2fbd
00000110: 76bb 563d bd96 f3bd e306 2cbd 22d9 b9bd
00000120: 89d1 eabc c424 993c b037 f4bd d681 26be
00000130: fb17 1bbb 301b 46bd 9e4e 283d 0030 eb3d
00000140: de7b dabd f0ff 623d 4c9b c1bc 43ba 143d
00000150: 4fb7 e83d 63fc 8dbd 990d 9b3d 11dc 973d
00000160: 0a39 51bd f511 e23d 14ed 23bd f31b 3abd
00000170: 3525 e8bd 33d9 373d b36d ef3d 0cb9 8b3a
00000180: 4f54 673d 6cac d93d ddc1 20bd 4989 0bbc
-0.064176045 -0.10225771 -0.15389173 -0.023471309 0.060331296 -0.15605131 -0.12100242 -0.053792175
-0.08139648 0.008783956 0.061874438 -0.1424928 -0.101111524 -0.015603691 0.011525843 0.030041192
-0.08923062 0.11173483 0.029277822 -0.14332075 0.11850066 0.08645753 0.19998293 0.2057213
0.03043242 -0.18409574 -0.16887587 -0.0839422 0.102585115 0.00012378213 -0.15901035 -0.10286014
-0.1254182 0.076777674 0.046633873 -0.03599489 -0.119695246 -0.13381419 -0.055307798 -0.11046856
0.06895988 0.10370937 0.10875552 0.020348543 -0.1672762 0.13199015 0.15169877 0.11569595
0.10742215 -0.042907096 -0.043381035 0.057764728 0.11324046 0.09307162 0.02832078 -0.09678528
0.051631454 -0.0901022 -0.04105285 0.026714463 -0.012431615 -0.035779133 -0.059627727 0.019239597
-0.07435601 0.090754636 0.035607845 -0.042952906 0.05242487 -0.118939854 -0.041998755 -0.09074618
-0.028664367 0.018694289 -0.11924684 -0.16260466 -0.0023665417 -0.04836577 0.0410906 0.11483765
-0.10668157 0.055419862 -0.023633622 0.036310446 0.11363088 -0.069329046 0.07570953 0.07415021
-0.051079787 0.11038581 -0.040021017 -0.04543681 -0.11335222 0.04488487 0.11690845 0.0010660007
0.056476887 0.1062859 -0.039247382 -0.008516618

model.C3.convs.10.weight f4 [1, 4, 5, 5]
00000000: 1cc9 e2bc 3608 973c da25 ffbd 6190 b3bd
00000010: b77e 16bd 1e0a 043d 8e6e 5ebd 9438 f6bd
00000020: 112e b2bd 6c3f 50bb 2e35 86bc 9d85 a4bd
00000030: 794f f6bd 7125 8bbd 398a 413d 1e05 2ebd
00000040: 0748 0e3d ee8c 2a3d bafb 123e 0569 083e
00000050: ad84 3dbe a960 f7bd a0a6 d73d 66ba df3d
00000060: 1e22 fb3c ca4a 593e ee1f 4a3e 85b2 1c3e
00000070: 9c45 fe3d 81a4 4abd ee14 813d 396e 913d
00000080: 0237 693d fd9d ebbd d36d d4bd a0a6 83bd
00000090: 76ca b43c 2122 f23c 7f2e aabd d8f5 2dbe
000000a0: 3974 92bd 63d8 f3bd 37c4 2bbe ad96 48be
000000b0: 7d40 90bd 4d61 f9bd 5508 1fbe fbd0 05be
000000c0: b021 35be 7a19 513d 1dd8 be3d 5200 2dbd
000000d0: fa62 99bc b6db 983d 9526 f33c 936b 913c
000000e0: 0052 be3c dea7 1d3d 7d74 8f3d f103 d5bc
000000f0: 522f 49bd 78c9 5fbd 7bb0 863d f8b6 b8bc
00000100: 0986 aebd 4514 f03d 2c65 3a3e ade8 163e
00000110: 4a49 7bbd 9433 8b3c d21b 033e cc00 403e
00000120: ace7 e33d 5cdc cbbd e268 7f3c 2a8b 1cbd
00000130: 5257 d7bc 95e6 823d ac08 353e 49bd 223e
00000140: 4a57 86bd b0fd aebd aac7 a7bd 391e 0a3e
00000150: faab 52bd 4c7e c2bd cb7c cebd 094e a7bd
00000160: 0805 a5bd 36a2 3bbd d99d 5cbd 42ad 19be
00000170: 79e1 dbbd d257 ec3c 8888 03bd cddd 64bd
00000180: f87c e9bd 1851 2cbe 4964 d13c bc3b b3bd
-0.027683787 0.018436532 -0.124583915 -0.087677725 -0.03674194 0.03223621 -0.054304652 -0.1202251
-0.08700193 -0.0031776084 -0.01638278 -0.08033297 -0.12026877 -0.06794251 0.04725096 -0.04248535
0.03473666 0.041638307 0.14353839 0.13321312 -0.18507643 -0.12078983 0.10529828 0.109242246
0.030655917 0.21219936 0.19738743 0.15302475 0.12415621 -0.04947329 0.0630282 0.071011014
0.056937225 -0.11504743 -0.1037251 -0.064282656 0.022069197 0.02955729 -0.0830965 -0.16988313
-0.07151074 -0.11906507 -0.16774069 -0.19588728 -0.0704355 -0.12176762 -0.15530522 -0.13068001
-0.17688632 0.051049687 0.09318564 -0.042236634 -0.018723954 0.074637815 0.029681483 0.01775149
0.02323246 0.03849017 0.0700464 -0.026002856 -0.049117394 -0.054635495 0.0657663 -0.022548184
-0.08521659 0.11722616 0.18202657 0.14737196 -0.06134919 0.016992368 0.12803581 0.18750304
0.11128172 -0.099541396 0.015588971 -0.038218655 -0.026286755 0.06391636 0.1767909 0.15892519
-0.06559618 -0.08544481 -0.0819238 0.13488092 -0.05143354 -0.094967455 -0.10082396 -0.08169181
-0.080576 -0.045808993 -0.053861473 -0.15007499 -0.10736365 0.02885047 -0.03211263 -0.05587559
-0.11400789 -0.1682781 0.025560515 -0.08751628

model.C3.convs.11.weight f4 [1, 4, 5, 5]
00000000: bc6c c73d f2e7 313d 6462 6fbd d1e5 4a3d
00000010: 861a 85bc ddb8 f83d 8b66 253e 8293 3e3e
00000020: 7bf6 333e dbed da3d 1d81 fe3c 1b83 8a3d
00000030: e2f5 153e adaa 543d b7d0 613d b693 97bc
00000040: e509 3dbd dff4 873d 4657 55bd bc2b c7bd
00000050: 92a8 8f3c 7849 de3d a3f6 a33d 6a81 8c3c
00000060: 615f 973d fadd 42bd 1252 e7bd 1fae 873d
00000070: 7abc 2e3d cd92 013d cc0a 8dbd 05f8 4e3d
00000080: db27 a4bb 7b70 4c3d 3ad4 fc3c c433 963c
00000090: 79dc 693d 297e 57bb 7be7 9f3d d47d 893c
000000a0: 5823 343d 2b0e c53d 1e40 e4bd b6c2 98bd
000000b0: 4d41 51bd ca65 f43a 73f7 9e3b 3b67 63bd
000000c0: 425a d93d a615 bf3c e8d2 2cbd 32c3 16be
000000d0: e717 77bb f5e0 e6bd 691a 0cbd 6fe0 02be
000000e0: 965c 7abd eb90 19be bfad d9bd 1f8d 05be
000000f0: 9821 a63d 6c7a 0a3d 023c 823d 9f17 d6bd
00000100: 7ee6 3f3d 89dd 7c3d 3c3f de3c 966e 273b
00000110: ffa5 11bb 4553 673d 1dc0 783d 6c62 55bd
00000120: 8fca b83c b206 24bd 1f38 12bd 7edb 9bba
00000130: f6a6 8abd c842 303d 4fac b53d ff30 313d
00000140: bee1 da3c 9d42 56bd 8465 bb3c 0aec 943e
00000150: 38ec 9a3e 29ac 25bd 08c3 7bb9 299b 8cbc
00000160: 37a5 aabd a789 863c f986 81bd 2561 a13d
00000170: d8d4 01be d7c8 f8bd 49ea f8bd 71a9 663e
00000180: 1a15 143e e060 30bc 103a 013d 081f f23d
0.09737536 0.04343409 -0.058443442 0.049535576 -0.016247999 0.12144635 0.16152398 0.18610957
0.17574494 0.106898986 0.031067425 0.06763288 0.14644578 0.05192058 0.055130687 -0.018503051
-0.046152014 0.06638502 -0.052085184 -0.097251385 0.017536435 0.10853857 0.080060266 0.017151553
0.07391239 -0.047574975 -0.112949505 0.06625008 0.042660214 0.03163414 -0.06886825 0.0505295
-0.005009634 0.049911957 0.030862916 0.01833523 0.057095025 -0.0032881594 0.07807823 0.016783632
0.04397902 0.09621843 -0.11145042 -0.07459013 -0.051087666 0.0018646058 0.0048512756 -0.05551837
0.106129184 0.023325752 -0.042193323 -0.14722899 -0.0037703456 -0.11273376 -0.034204874 -0.12780927
-0.061123453 -0.14996688 -0.106288426 -0.13042115 0.08111876 0.033808157 0.06359102 -0.10453724
0.046850674 0.06173471 0.027129762 0.0025548092 -0.0022224186 0.056475896 0.06073009 -0.052095816
0.022557525 -0.040045448 -0.035698052 -0.0011890975 -0.067701265 0.043032438 0.08870756 0.043259617
0.02671897 -0.05230962 0.022875555 0.29086334 0.30258346 -0.040447388 -0.0002400988 -0.01716383
-0.083322935 0.01642306 -0.06324572 0.07879857 -0.1267885 -0.12147682 -0.12154061 0.22525574
0.14461175 -0.010765284 0.031549513 0.11822325

model.C3.convs.12.weight f4 [1, 4, 5, 5]
00000000: dd74 1e3d 0341 24be ed86 fbbd 3bb1 f5bd
00000010: 38f5 49be dff3 c63c e89c d6bd 9fa6 15be
00000020: 167b 383d c053 eaba 2327 9ebd 6736 b63a
00000030: 984c 07bd 3ad2 d73d 8bee ca3c 26ed 9c3d
00000040: 8172 963d b8b6 71bc e6db 4cbd 28c7 cfbd
00000050: 2d04 503d fb92 2d3b fa57 8abd fefc 02be
00000060: ff83 babc 49e9 713d f843 093e e322 18bd
00000070: 4633 b4bd 1c1b 203d 7b46 553c efc2 99bc
00000080: 4940 fc39 0a1b 2dbd ff5a 1f3d cb01 1fbd
00000090: a1cd 16be 190e 8ebd a8ed 72bd 709f 9e3d
000000a0: dbb8 22be e9c8 b1bd 00cb 48bd 242b 043e
000000b0: fdd0 363e 92d5 bcbd 4376 c3bd 77ba ec3a
000000c0: 6340 c93d bb71 053e e0a2 3f3c ea3a 6e3c
000000d0: 2e3b 91bd dff4 39be b438 21be 7afd 3fbd
000000e0: 6a53 a9bd 5063 1fbe 9fa2 08bc ce76 3a3d
000000f0: c91a 33be cb9d febd 3468 07be 4161 46bd
00000100: 0a72 9e3d 9b11 2ebe fbd6 b43c 3fd6 a1bd
00000110: 7b72 4cbd 9a31 043e a5f2 a6bd 7d66 edbd
00000120: 8af8 14be 06ad 86bd a802 41bc 88f0 25be
00000130: 79a3 e8bd 6d85 273b 2ccc 053e d045 56bd
00000140: 77a9 c1bc bbb2 4f3d 9de7 b3bc 4bdd 43bd
00000150: 1edd 933d 3d20 323e 0dd0 103d d015 ad3c
00000160: 883f 763d f364 03bd d15c 953d 7f85 f33c
00000170: de54 fa3c a238 13be 8484 c9bd ac09 febd
00000180: 1b39 873d 427f cb3d 12f4 f3bd 42b8 0a3d
0.03868567 -0.16040425 -0.122815944 -0.11996695 -0.1972245 0.024286209 -0.10479146 -0.14614342
0.04503926 -0.0017877743 -0.077223085 0.0013901711 -0.03303203 0.105381444 0.02477195 0.0766242
0.07346059 -0.014753036 -0.0500144 -0.10145408 0.050785232 0.0026485312 -0.067550614 -0.12791821
-0.022768019 0.05906037 0.13404834 -0.037142646 -0.08798842 0.039088354 0.013017292 -0.01876971
0.00048113082 -0.042262115 0.03890514 -0.03882007 -0.14726879 -0.06936283 -0.059308678 0.07745254
-0.1589083 -0.08680899 -0.04902172 0.12907082 0.1785316 -0.09220423 -0.09544041 0.0018060942
0.09826734 0.13031666 0.011696547 0.014540413 -0.07091366 -0.18159817 -0.15744287 -0.046872593
-0.08267863 -0.15565228 -0.008339553 0.045523457 -0.17490686 -0.1243244 -0.13223344 -0.048432592
0.07736595 -0.16998903 0.022075167 -0.07902192 -0.049913865 0.12909546 -0.081517495 -0.11591814
-0.14547935 -0.0657597 -0.011780418 -0.16205037 -0.11359305 0.0025561706 0.13066167 -0.052312672
-0.023640377 0.05070756 -0.021961028 -0.047818463 0.07219909 0.1739511 0.035354663 0.021128565
0.060119182 -0.032078695 0.07293094 0.029726742 0.030558046 -0.14377072 -0.098397285 -0.124041885
0.06602689 0.09936382 -0.11911787 0.03386713

model.C3.convs.13.weight f4 [1, 4, 5, 5]
00000000: bef8 313b 4bc3 06be cceb 31be 2049 a1bd
00000010: 6f4b c4bd 3616 e53c 78ad 8ebd 9e63 03be
00000020: 540c efbd bcd5 b8bd 12d2 83bd 6e41 8a3d
00000030: 4ad1 c1bb 21b0 a2bd cb15 483b 59e5 a53c
00000040: 3680 b63d 35f0 b63d 7fb5 a53c 19d4 24bd
00000050: acbc b43d 6332 3cbd 8414 fa3d 68e0 1fbd
00000060: f8ad e83b 1b7f d93d 8b88 833c 905f 6c3c
00000070: 8496 8c3d 205f 0b3d 8127 123e 7e4f 723c
00000080: ff3d 62bd 4713 823d 9ade 1ebc 9e75 9a3d
00000090: d53c 26bd 438e 84bd 1cbe 093c 567f ccbd
000000a0: cd8d 093e d18f 3d3d 8602 9b3d cd9b b1bd
000000b0: 1f7a c8bd 3fd4 8b3d ba3c b13d 9d3e 6fbd
000000c0: ae09 e03d ac8f 91bb b09d 893d fed7 de3d
000000d0: 3b18 cbbc 9417 14bc 360d e3bd 2855 a53d
000000e0: dc03 953d 3eeb 463d 3574 f3bd bbb6 8abd
000000f0: 7316 2b3d bfd1 003d ccdd b53d e793 73bd
00000100: c1d5 44bb 47e2 d2bd d2f3 0b3e 2ac8 303c
00000110: 1f5f 683d a873 1fbd 48c6 843d 125e 593a
00000120: cf20 40bc b1f1 863a ff2e 243c fdd8 1dbe
00000130: 42b1 b93c 2b8f d53d aab0 863d f679 61bd
00000140: a30b bfbc 4c8d 173d 84e3 593e 9459 783d
00000150: f37d de3d 0503 a8bd cb8d 37be 9c57 813d
00000160: 1887 623d 0aa0 6e3d 46ef 1c3c adfe fcbd
00000170: 8f92 ac3c 4194 393c b7c6 673d e143 bebc
00000180: 6278 2bbd bf10 b7bc 99a6 0abe 683a 13bd
0.0027156319 -0.13160436 -0.17375106 -0.078752756 -0.095847 0.027964693 -0.0696668 -0.1283097
-0.11672273 -0.090251416 -0.06436552 0.06750761 -0.005914842 -0.0794375 0.0030530568 0.020250963
0.08911173 0.089325346 0.020228146 -0.040241335 0.08825049 -0.04594649 0.12210944 -0.03903237
0.007100817 0.106199466 0.01605632 0.014427081 0.06864646 0.034026265 0.14272882 0.01478946
-0.055234905 0.06351333 -0.009696627 0.07541965 -0.040585358 -0.06472447 0.008407142 -0.09985225
0.13432999 0.046279732 0.07568841 -0.08672295 -0.09788918 0.06827592 0.08654161 -0.058409322
0.10939346 -0.004442176 0.0671953 0.10881041 -0.024791827 -0.009038825 -0.11086504 0.08072883
0.07276127 0.04856419 -0.11887399 -0.06773134 0.041769456 0.03145003 0.08880195 -0.059467223
-0.0030034634 -0.10297065 0.13667229 0.01078991 0.05673134 -0.038928658 0.06483132 0.00082919106
-0.011726572 0.0010295418 0.01002097 -0.15414806 0.02266753 0.10427698 0.06576665 -0.05504795
-0.023320979 0.036999986 0.21278197 0.060632303 0.10863867 -0.08203701 -0.17925183 0.06315538
0.055304617 0.058258094 0.009578532 -0.12353263 0.021065978 0.01132685 0.056585994 -0.023225727
-0.041862853 -0.022346852 -0.13540114 -0.035944372

model.C3.convs.14.weight f4 [1, 4, 5, 5]
00000000: 4759 27bd 23f8 753c ba41 d0bc 6c5b 5bbd
00000010: d650 d4bb 6d0e e63c 0f0e 943d 9315 7a3d
00000020: a5fd bf3d 7bb8 7b3c cfc1 233d 049e 8bbd
00000030: 43b4 2dbc 13d0 49bd 48cb 0ebb afe6 adbd
00000040: a309 b2bd aafd d2bd a504 2fbd 047e f83d
00000050: 87a0 863d b83b 973d 5921 7c3c a003 dd3b
00000060: 301f 183e eab6 ccbb 879b 71bd e88a d1bd
00000070: 6281 5ebd ed0c e7bd fd7c 4bbd 5d7d 2d3d
00000080: f880 b7bd 2189 d3bd 0595 d63d bc04 34bd
00000090: 1d7a fc39 136b 943b 3339 703d 87c8 c73d
000000a0: 0ed9 3f3d 4489 e73c 63e3 f5bb bc4c ddbd
000000b0: 5302 bbbd 7971 77bd 36d2 5e3d 0e4a fdbc
000000c0: bade e9bc 560b cbbd 7948 1d3e 2861 1c3c
000000d0: 307c 953d 7fb2 2e3c f10d df3d 7adb e5b8
000000e0: 793b e73d 1ba7 c73c ae66 573d c097 cabc
000000f0: d572 df3d 5ac1 9dbd caa6 723d 1bc6 d63d
00000100: aba3 03bd d869 14be fe90 b03c 02a0 04bd
00000110: 8864 323d c3d7 493d b819 6abd bf93 eebc
00000120: 9aff ce3b 043e 093e 0e92 c63d c352 84bd
00000130: e03d 4f3b 13e7 4cbd 9b4b 3b3d 85ab 843c
00000140: 01a8 b83d 5e07 bb3d 67d2 883d 1fb1 d6bc
00000150: e128 7bbc 8490 e5bc aa2d b23d 7517 43bd
00000160: 0f00 e23d 1b31 473d 489f 08be a13c 06be
00000170: c625 773d 53bd 043e 7445 2f3e 5b49 0dbe
00000180: 0c7d 17be 346a 85bc 3f5d 633d 62e3 d3bc
-0.040856626 0.015012774 -0.025421966 -0.053553984 -0.006479363 0.02808305 0.07229244 0.06105573
0.09374551 0.015363808 0.039979752 -0.068172485 -0.01060206 -0.0492707 -0.0021788646 -0.08491265
-0.08693244 -0.10302289 -0.04272904 0.121334106 0.06573587 0.07384437 0.01538881 0.006744817
0.14855647 -0.006247391 -0.058986213 -0.102315724 -0.054322608 -0.11281762 -0.049679745 0.042355884
-0.08960146 -0.1032889 0.10477642 -0.043949828 0.00048156167 0.004529366 0.0586483 0.097550444
0.04683786 0.028263696 -0.0075039132 -0.108056515 -0.09131303 -0.06041095 0.05439969 -0.030919101
-0.028548587 -0.099142715 0.15359677 0.009544648 0.072990775 0.010662674 0.10891331 -0.000109604516
0.112906404 0.024371674 0.052588157 -0.024730563 0.10910574 -0.077028945 0.059241094 0.10487004
-0.032138508 -0.14493501 0.021553513 -0.032379158 0.043552905 0.049278032 -0.057153434 -0.029123185
0.006317091 0.13402563 0.096958265 -0.06461098 0.0031622574 -0.050025057 0.0457264 0.016195068
0.09016419 0.091322646 0.06680756 -0.026207505 -0.0153295705 -0.028023012 0.08700116 -0.047629792
0.110351674 0.048630815 -0.13342011 -0.13109066 0.060338758 0.12962846 0.17116338 -0.13797514
-0.14793795 -0.016285993 0.05550885 -0.02586526

model.C3.convs.15.weight f4 [1, 6, 5, 5]
00000000: 47bb 933d a03b 943d aed9 f63c 5410 e93c
00000010: b1a9 663d 2e67 75bd 1b5c 333d b5da 993d
00000020: 192f 61bc 356f 60bd d231 ddbd 3db9 eabc
00000030: 8e4a cfba 9ec4 98bd e7cc fdbd 2d43 3f3d
00000040: 2216 8c3d 1cfb a1bd a666 e9bc 2330 d8bd
00000050: 283c 143c 9b6a 4d39 6751 82bc 8d2d aebd
00000060: 9d71 85bd 182d 303d 6928 823d b9c7 7cbd
00000070: 9950 09ba d0ae 1a3d 7ab3 1a3d 2bce a7bd
00000080: a4ef 993d 3359 003d 7bcf 2c3d 4a1c 55bd
00000090: 7198 853d 69d3 bd3d d069 12bc ae34 44bd
000000a0: eaf6 843a e10c 483a f6d8 fd3c b9fc 563d
000000b0: 3c39 36bd d047 8e3d 9cad be3c 4752 de3d
000000c0: f0fc 723d 42ad 1a3b b06a ed3d 9daf 833c
000000d0: 1b35 a33d 7a45 65bc ced9 f8bd 4239 083e
000000e0: 5c1b cf3d 5dfa 0dbc 2e5a e3bc 9cd2 8c3c
000000f0: 1df8 393d 3501 803d 5c7b 8ebd 6ba1 123d
00000100: 53fc d4bd 2fee 7d3d 8c98 f13c 02e8 8139
00000110: bea8 5dbd 419b 553d 9733 963d dc89 d83d
00000120: 3e41 f9bc c2e5 dd3d 8898 723c bd28 123b
00000130: 4e8c 30bd 40e6 68bb e728 5ebd 6ff0 2a3d
00000140: de14 083c a3b7 9cbc 353c b7bc 686a 8d3d
00000150: e74f 633d 0da0 d53c 1ff2 a63c 2146 763d
00000160: e96f 963d 4501 e63d 2c91 94bc 7f09 9abd
00000170: 85c7 90bd 3d12 0ebd fb4c 0c3e a495 973c
00000180: 62f9 f2bb 45ea e43c 1208 51ba 0ca3 3a3d
00000190: 809c 803d 3063 bcbc aa28 90bc 6e1d 9f3d
000001a0: cbf6 91bc 04b2 ad3a 7039 c53c dd79 093e
000001b0: 0e50 793c 3b33 c13c f527 333d 772b d33d
000001c0: 96a9 feba 4dcf 2a3d 7729 e3bc cecf 0c3d
000001d0: 04bd 123d 9336 20bd 5795 983c 9f38 1dbd
000001e0: 66c6 14bd da72 573d be47 9e3c d627 97bd
000001f0: 0d10 c8bc 3d1d ca3d 3014 e8b9 48fc 11bd
00000200: cdda 07bd 35c4 b83d 7b9c 23bd e899 8abd
00000210: eed3 89bc d883 7f3d 9313 e73d bc51 8abd
00000220: 2152 ca3c cc26 1c3e 5c4e 703e c94e c83d
00000230: 2029 a0bd 065f d03d 47bd f03d 12b9 fe3d
00000240: bb47 703d 70ad 0abd 143a 243d 4729 a23d
00000250: e64c b23d d5d6 493d
0.07213455 0.07237935 0.030133095 0.028450169 0.056314174 -0.059912853 0.04378901 0.07512418
-0.013744139 -0.054793555 -0.10800518 -0.028652782 -0.0015815066 -0.07459377 -0.12392598 0.046694923
0.06840159 -0.079092234 -0.02849133 -0.10556056 0.0090475455 0.00019590037 -0.015907956 -0.08504782
-0.06515811 0.043011755 0.06355364 -0.061713908 -0.0005238145 0.03776437 0.03776882 -0.0819362
0.07516411 0.031335067 0.042190056 -0.05202893 0.065232165 0.09268839 -0.0089363605 -0.0479018
0.0010144387 0.00076313136 0.030987244 0.05248711 -0.044488177 0.06947291 0.023276143 0.10855537
0.05932325 0.0023601805 0.11592615 0.01607495 0.079691134 -0.013993615 -0.12150918 0.13303092
0.1011264 -0.008665648 -0.027752962 0.01719027 0.045402635 0.0625023 -0.06957123 0.03579847
-0.103996895 0.061994728 0.029491685 0.00024777657 -0.054116003 0.052150015 0.07334059 0.105731696
-0.030426618 0.108348384 0.014806874 0.0022302114 -0.043102555 -0.003553763 -0.054238226 0.0417332
0.008305756 -0.019130534 -0.022367576 0.06905061 0.055496123 0.026077295 0.020379124 0.060125474
0.07345564 0.11230711 -0.01813563 -0.075213425 -0.07069305 -0.034685362 0.1370124 0.018503971
-0.0074149827 0.02794374 -0.000797392 0.04556565 0.0627985 -0.022996515 -0.017597515 0.07769285
-0.017817875 0.0013251905 0.02407524 0.13425393 0.01521684 0.023583999 0.043739278 0.10311025
-0.0019429203 0.041701604 -0.027729733 0.034377865 0.03582479 -0.039114546 0.018625898 -0.038384076
-0.03632202 0.052599765 0.019321319 -0.07380645 -0.024421716 0.09868858 -0.0004426553 -0.035640985
-0.03316765 0.090217985 -0.039944153 -0.067676365 -0.016824689 0.062381595 0.1128303 -0.06753871
0.024697365 0.15249175 0.23467392 0.09780652 -0.07820344 0.10174374 0.11754852 0.12437643
0.058662158 -0.03385681 0.04009445 0.07918029 0.087060735 0.049277145

model.S4.bias f4 [1, 16, 1, 1]
00000000: 6d29 233e c8bf 793e 5ad9 813e c04b c63e
00000010: d7b3 d93e 5251 cb3e b225 2d3f 27f8 063f
00000020: 0c23 bb3d 2446 c13e 40bb 083f ae5d 183e
00000030: eb11 873e 73f3 633d 7244 fd3e 7032 f83e
0.15933771 0.24389565 0.2536114 0.38729668 0.4252002 0.3971048 0.67635643 0.527224
0.09137544 0.37748826 0.5341072 0.14879486 0.26380858 0.055652093 0.49466282 0.4847598

model.S4.weight f4 [1, 16, 1, 1]
00000000: 2438 0a3f f111 9e3f 228b 8b3f aed3 6e3f
00000010: 65aa 543f 7a48 063f 0b63 153f 32fd 373f
00000020: 9d8b c73e ef35 ee3e 10f3 ec3e bfd6 fb3e
00000030: fa0e 0a3f 74d2 693f 0778 883f f636 753f
0.53991914 1.2349225 1.0901835 0.9329175 0.830725 0.5245434 0.5835425 0.7187072
0.38973704 0.46525523 0.46279192 0.49187276 0.539291 0.9133675 1.066163 0.9578699

model.C5.weight f4 [120, 16, 5, 5]
00000000: 6fe0 1ebd 73d5 19bb 602e 4fbd 5109 f7bd
00000010: 5f23 073c 6a1a ee3c eb74 b0bb e632 12bd
00000020: a874 b4bd abaa fbbb 280e 8c3c 2322 bdbd
00000030: 2d72 94bd 3560 00bb 2b85 693d 553a c1bb
00000040: ac57 23bd fcc1 103c 34f8 813d b3ad 6dbc
00000050: c091 c63c 75b8 e53a c27a e0bc be09 483c
00000060: fd17 a43c 2343 e13c 5ee6 da3b 208f 8bbd
00000070: 815d 993c 34a4 9cbd f409 693d e5a1 873d
00000080: add7 143d c156 cb3b e8c5 893c 0e80 853d
00000090: 6c48 8d3d 8eae 7bbd f96a 12bd fa78 58bd
000000a0: adc7 73bd 1210 2a3d cda5 903c 0e7a 123c
000000b0: 4439 f83d c377 8e3c dff7 f53b c9cf 853d
000000c0: 09a8 003e 1631 f23c bf1c 533c 6015 993d
000000d0: cf80 f23c 4534 2c3c e505 10bc 4288 d53c
000000e0: fa95 d7bd b9c4 8abd 42f2 4c3d 69a1 6fbd
000000f0: c7e0 413d bd66 84bd 8e65 e2bd b12f 1c3c
00000100: a749 c73b 3543 213e 6ea8 203d 3cd1 483d
00000110: 1a9f b5bc ddba fabb 3fe6 82bc 24e8 94bd
00000120: 08e2 b53b 3814 11bd 3d51 493d 5cdc 6fbb
00000130: 67b1 3bbd 5b29 8d3d b36e febc 7e16 0cbd
00000140: 1ffb 393c 10d3 4dbd 25f7 803b c2e2 84bd
00000150: 72e2 6dbd 0e5c 213c b896 0bbd 7874 0f3c
00000160: f03f 39bd 9df1 8b3d 3e28 1f3d 65e8 6d3d
00000170: 9b09 403d b3fa 3dbd 80a2 033d 9b2f 313d
00000180: 6ba8 76bd b910 febb 4d17 75bd f779 cbbb
00000190: 60e7 fcbc af72 80bd d6d5 54bd 5222 c73c
000001a0: 4d2d 9fbb 7ee7 053d ad30 c8bd a7a6 ef3c
000001b0: 72c3 b0bc 8275 893c 8a79 43bc 7450 dcbc
000001c0: 534f c23d f097 84bc 1f0e 873d 12e7 843d
000001d0: 2e6a fa3d 59f3 8e3d dcbc df3d aaa3 013e
000001e0: 5376 0ebd 79cb b7bb 02d6 90bd c611 853c
000001f0: 42ac 44bd 2f56 363b ce99 8f3d d563 203e
00000200: bae5 24bd d4dd 2a3c 194e 423d 075e b63d
00000210: 9547 8a3d 4c53 0cbc eaf2 b2bc a5cf 64bc
00000220: ded3 8ebb b789 433d db81 98bc 3747 6bbd
00000230: 58e8 9e3c 8032 a83b 859d bdbb 48fe c7bd
00000240: d8fa 0dbe fc4f c2bb d490 6e3d 1942 35bd
00000250: c0b5 6c3d 779c 143b c297 0e3c a492 c63b
00000260: e575 8e3c 1ce3 a8ba 17d2 9c3c d571 673c
00000270: cb72 90ba 6d61 62bb 32da 5c3d 5253 8f3b
00000280: f964 933c 201a 7c3c 0d94 3bbc cd20 9f3d
00000290: ba7b 9abb 515f 18bd 9a5f 63bc f0c3 323d
000002a0: 0ca9 183c 9d6a ccbd f73c 5dbd 0b8d 87bc
000002b0: a7b6 ac3c e935 2abd 77e5 42bd 471c b9bc
000002c0: f013 8dbc e5ce fbbb c76a 183b f585 c03c
000002d0: e2b0 f13c 32c0 dd3c d705 91bc 09b3 c43a
000002e0: 38b3 8e3c e45c 49bd ac1f 27bd 9acd 413d
000002f0: 64ea 673c 0a1a 893c 22c5 273d 8c93 be3b
00000300: 680e 72bd 4144 18bd 8772 8a3c 1cdb ab3b
00000310: d93f 8dbd 9ecf 8bbd 342b 313c 4731 9e3c
00000320: a6a6 42bd 25fb 643d b8a7 3f3d ff5e a7bd
00000330: 9ecd 7ebc f0fa 05bd e70d 2fbd 100c 243d
00000340: d0c2 2e3d a06b 6fbd 19b4 7b3c 0700 01be
00000350: 87d2 86bd 1e2b 673d d40c 3f3d 4b4a aabd
00000360: 344e 80bc 1ea8 8f3d 114f debb b534 cfbb
00000370: 3808 f8bd d6f2 b6bd fccd 7fbd a12d 453d
00000380: 8990 143c 8203 12bd b7f2 abbb 2644 f7bc
00000390: cc6a 633d ba57 00bd d548 c6bb 3436 193d
000003a0: 8b2f 6a3d ddcd 0bbd 2670 24bd d648 633d
000003b0: 8822 00bd 2a99 a9bb cbbb 2cbd 9c70 053e
000003c0: d6d5 e23d b296 403d c92c 323d 46e7 9e3c
000003d0: 82a8 933d 5c03 02bd f9ea b13b 25c6 aa3d
000003e0: c12c fc3d 5975 483c c82c 5b3c ab8c 243b
000003f0: 1ff3 063d f4e3 f6bc 582c b53c de8d 1c3c
-0.038788255 -0.0023473173 -0.050581336 -0.12062324 0.008248179 0.02906533 -0.0053850315 -0.03569307
-0.08811313 -0.0076802573 0.017096594 -0.09235027 -0.0724834 -0.0019588594 0.057011764 -0.0058968463
-0.039878532 0.008835312 0.06346169 -0.014506745 0.02423942 0.0017526286 -0.027402285 0.012209354
0.02003097 0.027497834 0.006680294 -0.06814408 0.018721344 -0.07648507 0.056894258 0.06622676
0.036338497 0.00620541 0.016818002 0.06518565 0.06898579 -0.061445765 -0.03574655 -0.052849747
-0.059516598 0.041519232 0.017657185 0.008940233 0.121202976 0.017391091 0.007506355 0.065337725
0.125641 0.029564422 0.012885272 0.0747478 0.029602436 0.010510509 -0.008790468 0.02606595
-0.10526653 -0.06775803 0.050035723 -0.058503542 0.047333505 -0.06464908 -0.11054526 0.009532855
0.006081778 0.15748294 0.039223127 0.049027666 -0.022170592 -0.0076516704 -0.01597893 -0.0727084
0.0055506267 -0.035419673 0.04914974 -0.003659985 -0.04582348 0.068926536 -0.031058645 -0.034201138
0.011351376 -0.050250113 0.003935712 -0.06488563 -0.058077283 0.009848608 -0.034079283 0.008755796
-0.04522699 0.068331935 0.038856737 0.058082957 0.04688416 -0.046381664 0.032137394 0.04325829
-0.06021921 -0.0077534583 -0.059836674 -0.0062096077 -0.030872047 -0.06271874 -0.051961742 0.024308357
-0.004857695 0.03269147 -0.09774909 0.02925427 -0.02157757 0.016779665 -0.011930833 -0.026893832
0.09487786 -0.01618573 0.0659449 0.06489386 0.122272834 0.06980009 0.10924694 0.12660089
-0.03478081 -0.0056089726 -0.07072069 0.016243827 -0.04801584 0.0027822366 0.07011758 0.15663083
-0.040258147 0.0104288645 0.04743776 0.08904653 0.067519344 -0.008564781 -0.021844346 -0.013965522
-0.0043587526 0.047738757 -0.018616607 -0.057440963 0.0193979 0.005132973 -0.0057866 -0.09765297
-0.1386522 -0.005929945 0.058243588 -0.04425249 0.057790518 0.0022676268 0.008703174 0.0060599614
0.0173902 -0.0012885067 0.019143147 0.014126261 -0.0011020539 -0.0034542934 0.053919025 0.004373946
0.017992483 0.015387088 -0.011448872 0.07769928 -0.0047144564 -0.037200276 -0.013877774 0.04364389
0.009317648 -0.09981272 -0.05401322 -0.016546747 0.02108319 -0.04155532 -0.047582116 -0.022596492
-0.017221421 -0.007684576 0.0023257004 0.023501376 0.02950329 0.027069185 -0.01770298 0.001500697
0.017419443 -0.049160853 -0.04080169 0.047315218 0.014155004 0.01673605 0.040959485 0.005815929
-0.05909577 -0.037174467 0.016900314 0.0052446257 -0.068969436 -0.06826709 0.010813523 0.019310607
-0.04752221 0.055903573 0.04679081 -0.08172416 -0.015551953 -0.032710016 -0.042737868 0.040050566
0.042666256 -0.05845225 0.015362763 -0.12597667 -0.06583124 0.056437604 0.046643093 -0.083149515
-0.01566229 0.07014488 -0.006784328 -0.006323422 -0.121109426 -0.08933036 -0.0624523 0.04813922
0.009067663 -0.035647877 -0.0052474397 -0.030183863 0.05552177 -0.031333663 -0.0060511627 0.037405208
0.057174247 -0.034131873 -0.040146016 0.055489384 -0.03128293 -0.0051757293 -0.04217128 0.13031238
0.11075942 0.047018714 0.04349974 0.01939739 0.07209875 -0.031741485 0.0054296223 0.08338574
0.12313224 0.012235009 0.013377376 0.0025108259 0.032946702 -0.030137993 0.022115871 0.009555308
